server/save/net.pkl (torch, 72143 bytes, 8 tensors)

weight f4 [64, 5]
0.07067352 -0.07751244 -0.1362616 -0.06779056 -0.05383863 0.13064125 -0.08014386 0.07362723
0.18262021 0.0957 -0.21297577 -0.06455211 -0.19594401 -0.05350268 -0.016300295 0.074169815
0.046848737 0.022167055 0.13621312 0.12320347 -0.08891115 -0.103634484 0.03729541 0.1532527
0.075680986 0.089368016 -0.07427886 0.05081251 0.08218061 0.022540782 0.07057759 0.017957186
-0.24782576 0.05059994 0.10963864 0.097626 -0.0357347 0.0365639 0.03053452 -0.00065442245
0.21743505 0.12542386 0.114005156 -0.05825543 -0.029841598 0.033383097 0.1288324 0.16013855
-0.0042730556 0.0076128757 0.13451357 -0.028464487 -0.23767905 -0.0068111946 0.040112466 0.09571223
-0.10516811 -0.13899443 -0.12345532 -0.110317715 -0.20864867 0.03628849 -0.24060579 -0.038348336
0.04800032 -0.15060446 -0.010770904 -0.16448052 0.12131333 0.13914867 0.09915575 0.1486395
0.11309183 0.12610623 0.13271582 0.13719067 0.101252496 0.070829295 -0.13495095 -0.08985156
0.10061975 -0.007807274 -0.115619384 -0.018513538 0.008833186 0.2589833 0.02822341 0.36684665
-0.039061468 -0.11795401 8.4939435e-05 -0.004529309 0.0027375526 0.019168444 0.013139331 0.19271168
-0.048754554 -0.016955907 0.13892485 0.09428125 -0.06974956 0.13251886 -0.0845106 -0.06828818
0.02045212 0.12686317 0.025992578 0.016705459 -0.13141611 -0.10357968 -0.2636716 0.06949335
-0.13061239 -0.17083274 -0.07339277 0.06261287 -0.022605713 -0.19056357 0.085749544 0.10769719
0.07802423 -0.094845496 0.07365644 0.09129755 0.016179092 -0.15769592 0.03905497 -0.031723283
-0.100444116 -0.055169027 -0.15732199 -0.053746447 0.22381997 -0.10180591 -0.15816027 -0.13767192
-0.15783234 0.042037632 0.0054870076 -0.06718707 -0.003677664 0.08958931 -0.063448764 0.081954926
0.11924479 0.12691908 0.08272494 -0.016507491 -0.034186747 0.007165396 0.18842237 0.027713828
-0.13348314 -0.13591887 -0.0699565 0.24169429 -0.13104455 -0.146291 0.25282383 0.18565696
-0.053803906 -0.101442374 -0.060676437 0.013742039 -0.013444337 0.08600468 0.007592822 0.22815348
-0.039743297 -0.08855291 0.213506 -0.06140076 0.093794845 0.004796952 -0.048736818 0.0041357162
0.023210345 0.10766125 0.004911928 -0.013802429 0.19173852 -0.114898235 -0.14868942 -0.09421272
-0.08980965 0.032812707 -0.02027221 0.145237 -0.016490305 -0.05888127 0.087437 0.018745143
0.13275956 -0.20081821 -0.19166657 0.030685555 -0.08318724 0.022401799 0.040986482 -0.0063817156
-0.03017372 -0.07293085 -0.0152746765 -0.012612836 -0.035323687 0.23599464 0.054112706 0.001898195
0.11205318 0.10829579 -0.12673669 -0.004660999 -0.038523365 0.12801163 0.11491823 0.060910046
-0.06564247 -0.12299764 0.014031295 0.01468571 -0.19992754 0.007982595 0.10632977 0.03584313
0.009694043 0.03596194 -0.011810685 0.046457786 -0.050698917 -0.05860531 -0.059524838 0.029809125
-0.09995891 0.109250374 0.1276717 -0.23601957 0.22064255 0.038987525 -0.19261245 -0.07333375
0.20892154 -0.1711867 0.22072096 -0.06835893 -0.18476743 0.22781844 -0.08413004 0.24113639
0.10965001 -0.009642313 0.04164794 -0.11332921 -0.22195947 0.12371316 0.110347666 -0.037248526
00000000: 47bd 903d d8be 9ebd 2988 0bbe c7d5 8abd
00000010: e585 5cbd d2c6 053e 7722 a4bd e0c9 963d
00000020: cb00 3b3e 5dfe c33d 5216 5abe e633 84bd
00000030: 8ca5 48be a025 5bbd 3288 85bc 58e6 973d
00000040: 76e4 3f3d af97 b53c 747b 0b3e 1a52 fc3d
00000050: 0d17 b6bd 513e d4bd 12c3 183d 47ee 1c3e
00000060: a2fe 9a3d 9406 b73d 841f 98bd c720 503d
00000070: 4f4e a83d 72a7 b83c fc8a 903d f31a 933c
00000080: 09c6 7dbe e241 4f3d 398a e03d 24f0 c73d
00000090: 8c5e 12bd 07c4 153d 8823 fa3c 8c8d 2bba
000000a0: 4ba7 5e3e 1d6f 003e 897b e93d 3f9d 6ebd
000000b0: 5e76 f4bc b7bc 083d a4ec 033e 5cfb 233e
000000c0: fd04 8cbb 6e75 f93b edbd 093e 5b2e e9bc
000000d0: 2362 73be 7130 dfbb f84c 243d c604 c43d
000000e0: 6162 d7bd 8e54 0ebe 25d6 fcbd 41ee e1bd
000000f0: ffa7 55be 3da3 143d 5d61 76be 2513 1dbd
00000100: fc9b 443d 0e38 1abe 7278 30bc 956d 28be
00000110: 2073 f83d fd7c 0e3e 2b12 cb3d f434 183e
00000120: b09c e73d fe21 013e a8e6 073e b67b 0c3e
00000130: 785d cf3d f30e 913d 9530 0abe 1804 b8bd
00000140: ba11 ce3d 29d4 ffbb dbc9 ecbd b4a9 97bc
00000150: 11b9 103c 7699 843e c834 e73c 53d3 bb3e
00000160: ebfe 1fbd df91 f1bd 8321 b238 996a 94bb
00000170: 8368 333b 2407 9d3c 5946 573c 3656 453e
00000180: dbb2 47bd 1de7 8abc 5142 0e3e 8716 c13d
00000190: dbd8 8ebd 06b3 073e e513 adbd acda 8bbd
000001a0: 348b a73c 6be8 013e 63ee d43c e3d9 883c
000001b0: f291 06be 9521 d4bd f7ff 86be 8852 8e3d
000001c0: 41bf 05be c7ee 2ebe f34e 96bd 2d3b 803d
000001d0: 9e2f b9bc 1923 43be 759d af3d 5890 dc3d
000001e0: 2bcb 9f3d 5b3e c2bd 30d9 963d 36fa ba3d
000001f0: 048a 843c 0a7b 21be 1bf8 1f3d 46f0 01bd
00000200: a5b5 cdbd ebf8 61bd 0419 21be 3c25 5cbd
00000210: 1031 653e 9e7f d0bd c4f4 21be def9 0cbe
00000220: cd9e 21be a72f 2c3d 5bcc b33b 6099 89bd
00000230: f704 71bb 9a7a b73d 6df1 81bd fcd7 a73d
00000240: 9d36 f43d 13f7 013e b16b a93d b83a 87bc
00000250: 6707 0cbd b3cb ea3b cbf1 403e 1c08 e33c
00000260: ceaf 08be 512e 0bbe 5a45 8fbd b57e 773e
00000270: 8b30 06be 4fcd 15be 2072 813e dc1c 3e3e
00000280: 7c61 5cbd 05c1 cfbd db87 78bd 4a26 613c
00000290: a345 5cbc 3923 b03d 35cd f83b 11a1 693e
000002a0: dec9 22bd 3a5b b5bd 51a1 5a3e 5d7f 7bbd
000002b0: 8317 c03d c02f 9d3b 42a0 47bd e784 873b
000002c0: 9f23 be3c 807d dc3d 3df4 a03b 9523 62bc
000002d0: 1a57 443e c44f ebbd 0a42 18be 99f2 c0bd
000002e0: 1fee b7bd 9e66 063d e811 a6bc 02b9 143e
000002f0: ad16 87bc 7d2d 71bd 2b12 b33d 6a8f 993c
00000300: 1ff2 073e 4aa3 4dbe 3e44 44be 4660 fb3c
00000310: 125e aabd fa83 b73c 71e1 273d b61d d1bb
00000320: e12e f7bc c55c 95bd a342 7abc 12a6 4ebc
00000330: 92af 10bd 94a8 713e 49a5 5d3d dbcc f83a
00000340: 237c e53d 2fca dd3d 43c7 01be 4bbb 98bb
00000350: adca 1dbd 7b15 033e 405a eb3d d07c 793d
00000360: 8f6f 86bd 30e6 fbbd 84e3 653c 559c 703c
00000370: ceb9 4cbe 6ec9 023c 6cc3 d93d 3fd0 123d
00000380: c3d3 1e3c d44c 133d 9a81 41bc 854a 3e3d
00000390: aba9 4fbd 1f0c 70bd 51d0 73bd 4432 f43c
000003a0: 42b7 ccbd a9be df3d 5fbc 023e 1daf 71be
000003b0: 1ff0 613e 62b1 1f3d 333c 45be 0130 96bd
000003c0: 87ef 553e 914b 2fbe ad04 623e c4ff 8bbd
000003d0: ac33 3dbe 3d49 693e 5f4c acbd 75ec 763e
000003e0: 2f90 e03d cbfa 1dbc 0897 2a3d 2519 e8bd
000003f0: 5849 63be 535d fd3d f5fd e13d e991 18bd

bias f4 [64]
0.13411339 0.457638 -0.114766344 0.25480622 -0.2490994 0.49950925 0.30331153 -0.383639
-0.3951799 0.020762626 0.4652576 0.5728088 -0.29455432 0.06569733 0.24968581 -0.46858343
-0.07629095 -0.22299463 -0.148819 -0.47658587 -0.11107479 0.45895806 -0.04286977 0.21447137
0.38878322 -0.37175554 -0.4595125 -0.05352801 0.29413465 0.09865397 -0.100105524 0.5708915
-0.21794733 -0.31366307 0.09629614 -0.48978037 0.28298175 0.47542873 0.5008819 0.50642884
0.33430982 0.18626304 -0.25523922 0.14649151 -0.21972392 0.19750972 -0.5423053 -0.5633408
0.2829208 0.47544995 0.48797676 -0.42988598 -0.3465589 0.32920745 0.24039568 0.08033525
-0.3038072 -0.19543467 -0.4038281 0.07606125 0.38226348 -0.18526505 -0.24316654 -0.47994572
00000000: 0555 093e 874f ea3e 9e0a ebbd f675 823e
00000010: ea13 7fbe adbf ff3e a64b 9b3e 556c c4be
00000020: 0555 cabe 6216 aa3c 3f36 ee3e 99a3 123f
00000030: d3cf 96be 528c 863d a3ad 7f3e 2bea efbe
00000040: 6e3e 9cbd b458 64be 0264 18be 1003 f4be
00000050: 2e7b e3bd 8dfc ea3e 3698 2fbd 629e 5b3e
00000060: 980e c73e be56 bebe 3945 ebbe 3040 5bbd
00000070: d198 963e 180b ca3d 2004 cdbd f225 123f
00000080: 962d 5fbe 7298 a0be e936 c53d 7ec4 fabe
00000090: fce2 903e 656b f33e cc39 003f 52a5 013f
000000a0: a82a ab3e bdbb 3e3e b7ae 82be df01 163e
000000b0: 4fff 60be fd3f 4a3e 85d4 0abf 1a37 10bf
000000c0: ffda 903e 2d6e f33e 17d8 f93e 041a dcbe
000000d0: 2b70 b1be e18d a83e 492a 763e cf86 a43d
000000e0: 9e8c 9bbe 0720 48be 8fc2 cebe 00c6 9b3d
000000f0: 0ab8 c33e 1fb6 3dbe a600 79be 72bb f5be

weight f4 [128, 64]
0.0064221215 0.028102355 0.008912835 0.0060682497 0.030675353 0.01772318 0.006415784 0.0070448993
-0.027752034 -0.02236197 0.006790068 0.004704808 -0.0035624977 0.017803486 -0.011643857 -0.030699112
0.0006444307 -0.016306872 0.0025631671 0.020271037 -0.02438877 -0.018289415 -0.023455126 0.0149690565
0.02134142 -0.014304453 -0.005358756 0.023862245 -0.0036687145 -0.016146261 -0.016744278 0.045850392
0.017681975 -0.009751441 0.006410515 -0.0048292396 0.008637346 -0.0014953625 -0.026059592 0.015750052
0.009873548 0.0018341894 0.0152022345 0.012814427 0.0019195909 -0.0044771447 0.008889884 -0.051006407
0.012863565 0.017672349 0.032812312 0.01657106 0.009971067 -0.004813109 0.0024494866 -0.016030546
-0.008565658 -0.0021221333 -0.009568711 0.02046308 -0.009599741 -0.0013059118 0.021133527 -0.010802306
-0.0087278355 0.03511481 -0.018414188 0.014226045 0.02669875 0.020967567 -0.011484718 0.011090601
-0.004836636 0.00014002893 -0.011807455 -0.012193437 -0.028429626 -9.9210134e-05 0.011115109 -0.0159753
-0.0072021773 0.024000164 0.0027204037 0.022630397 -0.02636306 -0.013029674 -0.039642192 -0.00029377022
0.025099 -0.020100152 0.0053766887 0.014210233 -0.0030669502 -0.009389281 -0.022699477 0.03456046
0.0049664197 0.012473422 0.016857864 0.0060510715 -0.0067155217 0.010615547 -0.01297991 0.013948405
0.0031980535 0.012962639 0.009303292 6.133759e-05 0.0063657383 -0.000670476 0.0014413885 -0.042861395
0.026843004 0.040942993 0.009172186 0.0117705455 -0.003898707 -0.018227141 0.00086646166 -0.03569783
0.011552009 -0.017766312 -0.0024708302 0.024346555 0.013745412 -0.014157727 0.012921026 0.00821293
0.009823826 0.0015673911 0.01913133 0.0064655305 0.004606346 -0.0019894536 0.03144646 -0.0031812466
-0.016134072 -0.016995346 0.025667654 0.0060656206 0.026556045 0.02717246 -0.0033131253 -0.016057542
0.011421253 -0.045313664 0.0008593532 0.009242197 0.0074139372 -0.01061605 0.00621801 0.026658274
-0.0042281887 -0.0015069647 -0.032045938 -0.0059017586 0.013731441 0.00018388753 0.0059812116 0.029966248
0.0067077014 -0.02893585 -0.0122873895 -0.01168439 0.008447665 -0.018090958 -0.028226072 -0.0012081127
0.00010499818 0.006529442 0.013177555 0.013764661 -0.008753188 -0.008898216 0.019129815 -0.012657101
-0.03294502 -0.022783484 0.031555872 0.015185352 0.0005376332 0.0056194053 -0.0019711333 0.0056120264
-0.0032138107 0.01948137 -0.011309308 -0.0047290763 -0.025337296 0.026926164 -0.0029749065 -0.017220747
0.0030541506 0.036269985 -0.065555505 0.010800455 -0.011913331 0.027600305 -0.022722397 0.026633557
0.05501165 0.021094993 -0.0030400974 0.011580116 -0.07788902 -0.05769503 0.022441657 0.036525797
0.005967429 0.1044316 2.6513993e-05 0.036055923 -0.032434735 0.031560153 -0.071579486 -0.015006563
0.029425351 -0.036255866 0.005402372 -0.012808353 -0.01818166 0.01994886 0.023499472 0.029601237
-0.013579049 0.05051617 0.061231326 0.014182134 0.029808559 0.028912155 0.042373396 0.013436819
-0.0032780888 0.041994292 -0.035832185 -0.00071635586 -0.028522339 0.01645293 -0.031980217 -0.05119993
0.087530345 0.08256698 -0.019209696 -0.019526443 -0.030037217 -0.046760444 0.0067691766 -0.06288919
-0.00039055196 -0.04353153 0.0007472838 -0.023998663 0.07135517 -0.04943604 -0.02192279 0.039385036
00000000: a970 d23b e936 e63c 2407 123c 2bd8 c63b
00000010: e14a fb3c 3430 913c 7f3b d23b e6d8 e63b
00000020: 3c58 e3bc 7330 b7bc 387f de3b ca2a 9a3b
00000030: cb78 69bb 9ed8 913c e0c5 3ebc b47c fbbc
00000040: 03ef 283a fd95 85bc cffa 273b 720f a63c
00000050: f5ca c7bc afd3 95bc f724 c0bc c640 753c
00000060: 34d4 ae3c 395d 6abc 8198 afbb c17a c33c
00000070: d16e 70bb 2a45 84bc 4c2b 89bc 9fcd 3b3d
00000080: cad9 903c 82c4 1fbc 4c0f d23b 993e 9ebb
00000090: a883 0d3c 0a00 c4ba ed7a d5bc 4106 813c
000000a0: a9c4 213c 2f69 f03a cb12 793c 9af3 513c
000000b0: c89a fb3a 03b5 92bb e0a6 113c 18ec 50bd
000000c0: b4c1 523c 9ac5 903c 3466 063d 08c0 873c
000000d0: b05d 233c 49b7 9dbb 9187 203b 7e52 83bc
000000e0: f956 0cbc 7d13 0bbb 15c6 1cbc 30a2 a73c
000000f0: 3b48 1dbc 212b abba 3820 ad3c 28fc 30bc
00000100: 32ff 0ebc 8cd4 0f3d 5ad9 96bc 5c14 693c
00000110: 56b7 da3c 2dc4 ab3c 662a 3cbc 5ab5 353c
00000120: a57c 9ebb bbd4 1239 0e74 41bc fbc6 47bc
00000130: 3fe5 e8bc 090f d0b8 251c 363c a2de 82bc
00000140: 3e00 ecbb fe9b c43c cd48 323b 6263 b93c
00000150: 58f7 d7bc 6a7a 55bc da5f 22bd 2c05 9ab9
00000160: 6b9c cd3c 13a9 a4bc ef2e b03b 0ad2 683c
00000170: e3fe 48bb 80d5 19bc 41f4 b9bc 458f 0d3d
00000180: 59bd a23b 535d 4c3c 8119 8a3c 1148 c63b
00000190: e10d dcbb d5ec 2d3c b0a9 54bc da87 643c
000001a0: 6f96 513b 4061 543c d66c 183c 5ea2 8038
000001b0: af97 d03b e2c2 2fba f9ec bc3a 6e8f 2fbd
000001c0: dce5 db3c d7b3 273d f046 163c 3fd9 403c
000001d0: 7381 7fbb 1651 95bc 4223 633a e337 12bd
000001e0: a344 3d3c a88a 91bc a7ed 21bb 6d72 c73c
000001f0: 7034 613c d0f5 67bc b6b2 533c 868f 063c
00000200: 1df4 203c eb70 cd3a 4fb9 9c3c cddc d33b
00000210: d5f0 963b 7e61 02bb 01ce 003d 767c 50bb
00000220: 9a2b 84bc d339 8bbc f944 d23c 1dc2 c63b
00000230: 108c d93c c798 de3c 0521 59bb 1b8b 83bc
00000240: 3520 3b3c d29a 39bd 3846 613a 956c 173c
00000250: 9df0 f23b f1ee 2dbc 73c0 cb3b 7462 da3c
00000260: 9e8c 8abb 5885 c5ba 9a42 03bd 8a63 c1bb
00000270: d7f9 603c efd1 4039 0afe c33b c77b f53c
00000280: 47cc db3b e00a edbc 0c51 49bc e26f 3fbc
00000290: 1368 0a3c 7d33 94bc 5d3a e7bc 8959 9eba
000002a0: 7832 dc38 eef4 d53b ace6 573c 2c85 613c
000002b0: 8869 0fbc d3c9 11bc 21b6 9c3c bb5f 4fbc
000002c0: 5bf1 06bd 6ea4 babc bb40 013d fccb 783c
000002d0: f4ef 0c3a fd22 b83b 212e 01bb 17e5 b73b
000002e0: cc9e 52bb 6597 9f3c ad4a 39bc 5ef6 9abb
000002f0: 2990 cfbc 4294 dc3c a6f6 42bb 8612 8dbc
00000300: 2528 483b d68f 143d f741 86bd 64f4 303c
00000310: 2230 43bc 091a e23c 5224 babc 9e2e da3c
00000320: e553 613d 68cf ac3c 5f3c 47bb 87ba 3d3c
00000330: 4784 9fbd a051 6cbd 91d7 b73c 139c 153d
00000340: 6c8a c33b 3ce0 d53d 5e6a de37 60af 133d
00000350: 49da 04bd 3845 013d 4498 92bd 16de 75bc
00000360: 6f0d f13c 0881 14bd 6206 b13b 20da 51bc
00000370: b4f1 94bc cb6b a33c f781 c03c 4b7e f23c
00000380: a97a 5ebc 0bea 4e3d b3cd 7a3d 2e5c 683c
00000390: 1431 f43c 2fd9 ec3c ba8f 2d3d 1b26 5c3c
000003a0: 34d5 56bb 3502 2c3d c5c4 12bd d4c9 3bba
000003b0: aea7 e9bc 4cc8 863c b0fd 02bd 05b7 51bd
000003c0: 1c43 b33d e018 a93d a75d 9dbc ebf5 9fbc
000003d0: 9c10 f6bc e187 3fbd f8cf dd3b 0ccc 80bd
000003e0: ffc2 ccb9 1e4e 32bd 5ee5 433a d898 c4bc
000003f0: a922 923d 727d 4abd 6c97 b3bc 3452 213d

bias f4 [128]
0.2159864 0.06553814 0.05882038 0.14168918 0.22329655 0.22405364 0.20662393 -0.21585414
-0.014617396 -0.17369567 0.059203614 0.16439842 0.16510446 0.034432873 -0.16787824 0.056569032
0.010835833 0.04330239 0.06277695 -0.07718882 0.19637857 -0.00566545 -0.109725244 0.086399846
0.12251157 -0.28926992 0.17826179 -0.2141683 -0.10572411 0.12548319 0.20115434 -0.00012937897
-0.08354294 -0.17400862 0.12421141 0.18508247 -0.09665251 0.37709397 0.087160595 0.2059513
-0.22226943 0.06495885 0.21790358 -0.20564918 -0.0027689808 0.065577306 0.066318065 0.053377505
0.058569495 -0.029395163 -0.34080198 -0.07104225 0.06649263 -0.041031536 0.19649215 -0.15029402
0.04017629 -0.19110453 0.071051784 0.00269833 0.013628058 0.045540158 0.058106307 0.06441169
0.08497996 0.113060534 -0.2049299 0.19342051 -0.34338683 0.015638199 -0.0690967 -0.11991703
0.04445386 -0.10564599 -0.13592537 -0.06742335 -0.07763681 0.28353286 0.1543651 -0.18407552
-0.26512882 0.10380263 -0.16806267 0.18648311 -0.12918384 -0.32066083 -0.015756603 0.12781751
0.4035779 0.17269643 -0.18605939 0.093654536 -0.20444229 0.1557181 -0.0415221 0.09032588
0.055919018 -0.25509036 -0.22398478 -0.20620662 0.1464742 0.070876084 -0.06132183 -0.09944131
0.06291368 0.05201672 -0.066782914 0.06670233 -0.04523031 0.19183236 0.060422108 0.20415752
0.26038492 0.15812808 -0.0008003776 0.13279584 0.104123965 0.05598635 -0.019392123 -0.2884286
-0.17587823 0.121981025 0.15307073 0.06312632 -0.12939698 0.07164557 -0.14851016 -0.034265544
00000000: 8a2b 5d3e dc38 863d a4ed 703d f816 113e
00000010: daa7 643e 516e 653e 3995 533e de08 5dbe
00000020: cd7d 6fbc 47dd 31be 7d7f 723d 0f58 283e
00000030: 2511 293e 7c09 0d3d 46e8 2bbe eeb4 673d
00000040: c788 313c d95d 313d 3491 803d 2c15 9ebd
00000050: 7717 493e 3da5 b9bb a1b7 e0bd 67f2 b03d
00000060: 59e7 fa3d 301b 94be 428a 363e ef4e 5bbe
00000070: e285 d8bd aa7e 003e 67fb 4d3e e7a9 07b9
00000080: 9018 abbd 512f 32be 8d62 fe3d 4286 3d3e
00000090: c0f1 c5bd 7612 c13e 4181 b23d e6e4 523e
000000a0: 999a 63be 2509 853d 1e22 5f3e b395 52be
000000b0: ca77 35bb 654d 863d c4d1 873d 5fa2 5a3d
000000c0: 91e6 6f3d 20ce f0bc 997d aebe 997e 91bd
000000d0: 4a2d 883d af10 28bd 3d35 493e ade6 19be
000000e0: e58f 243d e8b0 43be 9983 913d 77d6 303b
000000f0: 3848 5f3c 5188 3a3d e100 6e3d 47ea 833d
00000100: f909 ae3d 488c e73d 25d9 51be 0710 463e
00000110: 66d0 afbe ae1b 803c 9282 8dbd 0f97 f5bd
00000120: 4015 363d ed5c d8bd 0530 0bbe 4115 8abd
00000130: 0c00 9fbd 382b 913e e311 1e3e 4b7e 3cbe
00000140: f7be 87be 7996 d43d 9f18 2cbe 6ef5 3e3e
00000150: c548 04be a82d a4be fe13 81bc 98e2 023e
00000160: c3a1 ce3e 55d7 303e 5a86 3ebe f3cd bf3d
00000170: 5259 51be 9174 1f3e 1413 2abd c6fc b83d
00000180: 570b 653d 349b 82be 445c 65be d427 53be
00000190: 55fd 153e 7b27 913d 992c 7bbd e3a7 cbbd
000001a0: e3d8 803d 7c0f 553d 7bc5 88bd 3b9b 883d
000001b0: 6b43 39bd b46f 443e 2c7d 773d ab0e 513e
000001c0: 2c51 853e 54ec 213e 6ed0 51ba a2fb 073e
000001d0: f23e d53d f151 653d 3bdc 9ebc eaac 93be
000001e0: 6c19 34be 30d1 f93d 93be 1c3e 5f48 813d
000001f0: a480 04be eaba 923d 0c13 18be 075a 0cbd

weight f4 [64, 128]
0.014258946 0.026675005 -0.0116611365 0.038699634 0.025729904 -0.00448547 0.014259166 0.0043518227
-0.0047221933 0.0044188933 -0.022653984 -0.01195529 -0.0055449274 -0.025743172 -0.012025908 0.0116156675
0.043538153 0.0020961878 0.016685558 -0.010579794 -0.004921302 -0.01954259 -0.029594969 -0.020413054
-0.0031313528 -0.021105168 0.020625344 0.003433007 -0.006677956 -0.0083226785 0.031153802 -0.013650705
-0.025388008 -0.0023574415 -0.014921109 -0.013475794 -0.029204182 0.010616028 -0.0012338407 -0.026203917
-0.021892618 0.032922443 0.01596676 0.002927374 -0.016636686 -0.010725744 0.009725122 -0.02595051
0.029085666 -0.006788895 -0.025838073 -0.0020860736 0.016792608 0.01215188 0.006180624 0.028581107
0.0071587246 0.0030575462 -0.0057171793 0.0036382836 -0.043898813 -0.030217243 -0.009131224 -0.008245469
-0.008688791 -7.709995e-05 0.039222427 -0.000590596 0.018635899 0.020815104 -0.013014686 0.024972416
0.012395386 -0.024982346 -0.016214378 0.025144491 -0.019382503 0.007576004 -0.022505924 0.014113448
0.03093816 0.02176738 -0.020388395 -0.008603653 0.0060362653 -0.00049618556 0.011309396 -0.012651025
-0.003876165 -0.02274883 -0.0033660836 0.0028640258 -0.013139262 0.008541639 0.0013708577 0.024716526
-0.019160165 -0.008894267 0.022237925 0.0090797 -0.014127338 -0.0013902304 -0.023191558 -0.018844489
-0.005806619 0.019192921 0.017826887 -0.006760641 -0.016097913 -0.017765112 -0.009475016 0.009230405
0.009810726 0.0009926821 -0.02156348 -0.020148685 -0.023279825 0.009861627 0.0032851782 0.030555885
-0.004530687 0.002395423 -0.0149110155 0.0081799505 -0.001892132 0.0035419818 0.025965 0.009541161
-0.0062718885 -0.0063405163 0.010873178 -0.008487728 -0.034857474 0.0014379611 -0.010524264 0.00026173925
0.013737163 0.0019010657 0.0065550413 0.014306799 -0.0050306893 0.012117892 0.0013003048 0.0035729706
-0.009954393 -0.0017672748 -0.031517617 0.005224268 -0.00066227734 0.01563023 0.016006874 -0.01132893
0.009726015 0.0071177324 -0.014847346 -0.005859926 0.0049914285 0.0062680454 -0.006099 0.0024498769
0.009364919 -0.002127424 0.00873464 -0.00063136505 -0.010051577 -0.016886918 -0.007888787 -0.0076871985
-0.004244392 -0.0106914705 0.0010014878 0.0097290445 -0.018965654 -0.0029691318 0.003331102 0.014488179
-0.016629592 0.001918288 0.023240386 0.013835994 0.012566193 0.00019375709 -0.0023991298 0.017656596
0.012891741 8.925509e-05 -0.002316618 -0.010814337 -0.008596183 -0.0029924128 0.0022858616 -0.009459894
-0.01677582 -0.013558251 -0.010471988 -0.0016997784 0.021325052 0.004941672 -0.0022883955 -0.0056854533
-0.009893744 -0.0005838762 -0.010819679 0.021166895 -0.008983892 -0.019075766 0.013268436 -0.00079754344
0.020020792 -0.01664169 0.015315917 -0.022950606 -0.018506503 0.00153304 -0.011536774 0.004478264
-0.020619236 0.012869548 0.032598495 0.008711557 0.017298836 -0.019368444 -0.010159132 -0.012394535
-0.014688182 0.0017343117 -0.007434438 -0.0049928096 -0.024012454 0.013105326 0.012707958 -0.007001203
0.00443927 0.009915127 0.001303211 0.00097183464 0.015513281 0.0009791708 0.016362898 0.004266165
-0.014000711 -0.00037626937 -0.0020307517 0.007400286 6.122437e-05 -0.0038875078 -9.3320894e-05 -0.016092936
-0.004773236 -0.00087008515 0.0020052996 -0.020535275 0.008361408 0.012627175 -0.003180391 0.016967554
00000000: 5b9e 693c 8a85 da3c 5a0e 3fbc 8283 1e3d
00000010: 85c7 d23c d9fa 92bb 479f 693c bc99 8e3b
00000020: a1bc 9abb 5dcc 903b d994 b9bc 1fe0 43bc
00000030: 39b2 b5bb 58e3 d2bc 5008 45bc a44f 3e3c
00000040: 1055 323d 3260 093b 27b0 883c df56 2dbc
00000050: e042 a1bb c817 a0bc 2671 f2bc 4739 a7bc
00000060: 6237 4dbb bfe4 acbc 7bf6 a83c 4dfc 603b
00000070: c1d2 dabb d85b 08bc 4236 ff3c 35a7 5fbc
00000080: 83fa cfbc 4e7f 1abb ab77 74bc 94c9 5cbc
00000090: 9c3d efbc d9ee 2d3c d3b8 a1ba 99a9 d6bc
000000a0: 2658 b3bc afd9 063d b9cc 823c 30d9 3f3b
000000b0: a949 88bc 08bb 2fbc 1e56 1f3c 2a96 d4bc
000000c0: 1045 ee3c 6175 debb 5eaa d3bc 82b6 08bb
000000d0: a790 893c ae18 473c d586 ca3b ed22 ea3c
000000e0: bc93 ea3b 1d61 483b 2d57 bbbb 4570 6e3b
000000f0: 3ecf 33bd 278a f7bc 219b 15bc 0118 07bc
00000100: 6e5b 0ebc b8b0 a1b8 b2a7 203d 3ad2 1aba
00000110: 50aa 983c 7084 aa3c 8d3b 55bc f492 cc3c
00000120: 0416 4b3c c7a7 ccbc 04d4 84bc d2fb cd3c
00000130: 0ec8 9ebc 2140 f83b 585e b8bc 173c 673c
00000140: 0672 fd3c 8151 b23c 9005 a7bc 56f6 0cbc
00000150: ddcb c53b 7312 02ba 0b4b 393c 3f46 4fbc
00000160: 4207 7ebb c15b babc 8399 5cbb 61b2 3b3b
00000170: 0f46 57bc 3bf2 0b3c 5aae b33a 507a ca3c
00000180: c7f5 9cbc 42b9 11bc 4f2c b63c 06c3 143c
00000190: 5a76 67bc 6438 b6ba 39fc bdbc c25f 9abc
000001a0: 7345 bebb 793a 9d3c b109 923c 5e88 ddbb
000001b0: c5df 83bc 2488 91bc 193d 1bbc 203b 173c
000001c0: 2bbd 203c e21c 823a e5a5 b0bc db0e a5bc
000001d0: 55b5 bebc a992 213c 254c 573b 5650 fa3c
000001e0: 2876 94bb 87fc 1c3b 554d 74bc 3305 063c
000001f0: 6a01 f8ba 9820 683b 8db4 d43c 8852 1c3c
00000200: 6a84 cdbb 1bc4 cfbb 6a25 323c 1d10 0bbc
00000210: b6c6 0ebd f879 bc3a f66d 2cbc 0c3a 8939
00000220: d611 613c 2e2d f93a accb d63b 1067 6a3c
00000230: 7bd8 a4bb 1f8a 463c fd6e aa3a 8028 6a3b
00000240: c017 23bc e7a3 e7ba 9e18 01bd 5630 ab3b
00000250: ae9c 2dba f80a 803c d920 833c fa9c 39bc
00000260: dd59 1f3c de3b e93b 4842 73bc 9f04 c0bb
00000270: 238f a33b 2d64 cd3b 1fda c7bb 1d8e 203b
00000280: 516f 193c 416c 0bbb bc1b 0f3c 3182 25ba
00000290: 5faf 24bc 6f56 8abc f93f 01bc e5e4 fbbb
000002a0: 8a14 8bbb 472b 2fbc 5b44 833a 9266 1f3c
000002b0: dc5d 9bbc c495 42bb 9e4e 5a3b d45f 6d3c
000002c0: c83a 88bc 106f fb3a 9f62 be3c 5db0 623c
000002d0: 6fe2 4d3c 462b 4b39 b83a 1dbb 91a4 903c
000002e0: e137 533c 762e bb38 67d2 17bb 9e2e 31bc
000002f0: 01d7 0cbc 5b1c 44bb 65ce 153b acfd 1abc
00000300: 726d 89bc 6d23 5ebc b392 2bbc 19cb deba
00000310: e0b1 ae3c c0ed a13b e8f8 15bb 0a4d babb
00000320: 5f19 22bc 450f 19ba 0645 31bc 3266 ad3c
00000330: 2d31 13bc c844 9cbc db63 593c 3c12 51ba
00000340: a502 a43c 2754 88bc 9def 7a3c e902 bcbc
00000350: f39a 97bc 49f0 c83a bd04 3dbc 67be 923b
00000360: ace9 a8bc ccda 523c 0086 053d ebba 0e3c
00000370: 4ab6 8d3c 92aa 9ebc 7d72 26bc 7312 4bbc
00000380: b3a6 70bc d851 e33a 969c f3bb b99a a3bb
00000390: c4b5 c4bc b9b7 563c 0a35 503c 596a e5bb
000003a0: 4c77 913b 0f73 223c 81d0 aa3a b8c2 7e3a
000003b0: 6b2b 7e3c 8557 803a 7c0b 863c 30cb 8b3b
000003c0: 3d63 65bc 0546 c5b9 5c16 05bb 197e f23b
000003d0: 9565 8038 8fc5 7ebb 46b5 c3b8 55d5 83bc
000003e0: ce68 9cbb 6d16 64ba 586b 033b 9839 a8bc
000003f0: 49fe 083c 36e2 4e3c 1b6e 50bb 8aff 8a3c

bias f4 [64]
0.06882868 -0.1079694 0.028854052 -0.075989686 -0.030869422 0.115613945 -0.19988242 0.07115359
0.022362417 -0.04978322 -0.03165996 0.06481336 -0.03135371 -0.08102275 -0.009083085 -0.064567104
-0.19826679 -0.015455174 0.07727321 -0.06217903 0.17259286 0.13359758 -0.00082572724 0.10921069
-0.09341293 -0.20427224 -0.13728361 0.05700469 -0.17372671 0.09985836 0.0667147 0.051072475
0.18999363 0.12887305 0.11870432 -0.07404802 -0.08509821 0.06614504 -0.07149782 -0.15252005
-0.119861044 0.18032351 -0.11531909 0.1446456 0.18184659 0.05569659 -0.061014842 0.2203487
0.0015512996 0.011797556 -0.15110062 -0.14084798 -0.00010529086 0.01483323 -0.09875763 0.051403634
0.2161066 0.005774642 -0.11134357 -0.099317774 -0.08642157 -0.10784128 0.027364016 0.033332784
00000000: 0df6 8c3d 101f ddbd 555f ec3c 7ba0 9bbd
00000010: dfe1 fcbc 01c7 ec3d faad 4cbe f9b8 913d
00000020: 6331 b73c 7de9 4bbd e0ad 01bd debc 843d
00000030: bf6c 00bd 41ef a5bd 38d1 14bc c23b 84bd
00000040: 7306 4bbe b337 7dbc 6b41 9e3d 70af 7ebd
00000050: 2fbc 303e cecd 083e 9e75 58ba dba9 df3d
00000060: 474f bfbd be2c 51be 1394 0cbe c07d 693d
00000070: 6ae5 31be 8a82 cc3d b7a1 883d 5f31 513d
00000080: b18d 423e 4cf7 033e 401b f33d 7da6 97bd
00000090: f847 aebd 0d77 873d 736d 92bd 372e 1cbe
000000a0: b579 f5bd baa6 383e 6a2c ecbd fa1d 143e
000000b0: fe35 3a3e 1c22 643d b3ea 79bd 17a3 613e
000000c0: fa54 cb3a 894a 413c 1fba 1abe 743a 10be
000000d0: 9acf dcb8 1307 733c 7141 cabd 9e8c 523d
000000e0: 0c4b 5d3e 3539 bd3b 1908 e4bd 1e67 cbbd
000000f0: cbfd b0bd e4db dcbd 802a e03c f587 083d

weight f4 [5, 64]
0.0054473816 -0.07473126 0.10701674 -0.035552397 0.079918765 -0.17028473 0.15384135 0.057474963
-0.13602287 0.05551084 -0.14405206 -0.08412238 0.026043441 -0.25795677 -0.058164712 -0.13195865
0.0029779458 0.085012145 -0.00022641655 0.14275289 -0.11975249 0.18860057 -0.027764905 -0.12834644
0.049453 0.18071415 0.13851519 0.17701097 -0.07470491 -0.032990452 0.049079277 -0.21193568
0.024228942 0.11386369 -0.11368684 0.17173316 0.18022397 -0.048628 0.17617835 -0.0026582417
0.14325492 -0.17371432 0.030731987 -0.079996705 -0.13102916 -0.19276421 -0.008796656 -0.14115995
-0.05522553 -0.06318429 0.1935041 0.13386062 0.14271234 0.15209106 0.13461752 -0.046048354
-0.07976546 -0.0003076983 -0.120629385 0.16392969 0.16317958 -0.147958 -0.19299737 -0.03248353
0.09659513 0.059991654 -0.006341168 -0.05488978 0.0096664755 -0.105591774 0.040582307 0.03656656
0.13167691 0.06974772 0.11887285 0.17203932 0.044056818 0.17221494 -0.012742845 0.1385906
0.052708562 -0.15363602 -0.16292948 0.02586374 -0.121371105 -0.20858291 0.052826848 -0.068767674
0.046771694 0.09250166 -0.06414064 -0.17143343 0.12133601 -0.055830095 -0.16326348 0.07040929
-0.13622032 -0.105660535 -0.028210232 -0.14394642 0.017535742 0.12474372 -0.10847795 0.21096256
-0.056647323 -0.011294159 0.08906667 -0.07780762 -0.023696506 -0.019245874 0.009958414 0.03396729
-0.038495604 -0.10501789 0.061429594 -0.15680641 -0.12604149 -0.12527731 0.069612406 0.0015936522
-0.0613352 0.03482979 0.1329802 -0.008266771 -0.064909525 0.12483806 0.17298026 0.24254979
-0.035828415 0.059487514 -0.11811944 -0.059904814 0.08078435 0.061881833 -0.08856784 -0.18736717
0.16687858 0.06158607 -0.09442862 0.030129878 0.12227072 -0.12536016 0.17932943 -0.18418576
0.0069274977 -0.022792373 0.056361083 -0.030872336 0.18571445 -0.029728323 0.016071975 0.034999162
0.042328313 -0.15992063 0.15636547 -0.06354449 -0.026598345 0.03709854 0.13700464 0.08468997
-0.09404911 -0.08902371 0.17735745 -0.04204768 -0.053549293 -0.036317393 0.10269521 -0.117855586
-0.09849525 -0.02725185 0.107001185 0.20786491 -0.022454366 -0.051798433 -0.05683032 0.081715226
-0.034984287 0.053395484 -0.10280435 -0.043243475 -0.18077584 -0.14947394 -0.056741808 -0.03721598
0.032644216 -0.04444371 -0.078025565 0.029942682 -0.051524837 0.03514687 0.018695042 -0.09975284
0.083128534 -0.070316546 0.073602624 -0.14949849 -0.032681387 -0.0773567 -0.1425489 0.11068282
-0.0466414 0.076794684 -0.0003602798 0.10984356 -0.0006126678 -0.07300982 0.088597804 -0.051078282
-0.12014226 -0.10286625 -0.012232641 0.029801974 -0.010905979 0.10341472 0.034415223 -0.042239495
-0.083767794 -0.10892891 -0.05716436 0.078496434 -0.089187056 -0.00023977348 -0.044919144 -0.03459017
0.09000166 0.07985458 0.02944311 -0.08742792 -0.01407581 0.06345482 0.014252916 -0.10496976
-0.02710265 0.14478898 -0.024569746 0.102395214 0.12598142 0.032768738 -0.102245644 0.1272389
-0.0207274 -0.052183166 -0.06704297 -0.18653248 0.008495643 -0.1071022 -0.100906685 0.14691092
0.13373101 0.053027976 -0.022716928 -0.1341758 -0.03025587 -0.111119315 -0.04927622 0.09080905
00000000: f37f b23b b40c 99bd 982b db3d 649f 11bd
00000010: 73ac a33d 1f5f 2ebe 9688 1d3e de6a 6b3d
00000020: 9449 0bbe 565f 633d 6282 13be 5b48 acbd
00000030: 0e59 d53c e912 84be 1f3e 6ebd 2b20 07be
00000040: a429 433b d91a ae3d 3b6a 6db9 d02d 123e
00000050: cb40 f5bd 8220 413e 3a73 e3bc 406d 03be
00000060: 3b8f 4a3d 210d 393e edd6 0d3e 5d42 353e
00000070: e3fe 98bd ff20 07bd 5a07 493d ab05 59be
00000080: c67b c63c 5e31 e93d a5d4 e8bd d1da 2f3e
00000090: a28c 383e 272e 47bd 1968 343e e535 2ebb
000000a0: 6bb1 123e 2be2 31be a6c1 fb3c 50d5 a3bd
000000b0: 822c 06be fb63 45be d91f 10bc 3c8c 10be
000000c0: 2a34 62bd c466 81bd f025 463e c212 093e
000000d0: 2f23 123e c2bd 1b3e 2dd9 093e 339d 3cbd
000000e0: 135c a3bd 9152 a1b9 8a0c f7bd 2fdd 273e
000000f0: 8c18 273e 4d82 17be 1aa1 45be 730d 05bd
00000100: abd3 c53d cfb9 753d 93c9 cfbb 1bd4 60bd
00000110: 2360 1e3c 8040 d8bd a239 263d d1c6 153d
00000120: 50d6 063e e5d7 8e3d 9c73 f33d 132b 303e
00000130: ec74 343d 1d59 303e 5ec7 50bc b2ea 0d3e
00000140: efe4 573d c352 1dbe fcd6 26be 32e0 d33c
00000150: 6a91 f8bd c296 55be f760 583d 11d6 8cbd
00000160: ad93 3f3d 8371 bd3d 2b5c 83bd 3f8c 2fbe
00000170: 047f f83d 19ae 64bd 8b2e 27be bf32 903d
00000180: 577d 0bbe 8d64 d8bd 2519 e7bc b166 13be
00000190: 1ea7 8f3c a379 ff3d b029 debd 9206 583e
000001a0: 0607 68bd 230b 39bc 9668 b63d 9a59 9fbd
000001b0: 2d1f c2bc 86a9 9dbc 9e28 233c 4921 0b3d
000001c0: 91ad 1dbd 9f13 d7bd 999d 7b3d dc91 20be
000001d0: 0511 01be b248 00be f390 8e3d 18e2 d03a
000001e0: 9e3a 7bbd afa9 0e3d f62b 083e 5a71 07bc
000001f0: 49ef 84bd 19ab ff3d bd21 313e f95e 783e
00000200: d1c0 12bd 2ea9 733d 9be8 f1bd c05e 75bd
00000210: 4472 a53d ce77 7d3d 0e63 b5bd 2edd 3fbe
00000220: 38e2 2a3e ad41 7c3d cb63 c1bd efd2 f63c
00000230: 1269 fa3d 6a5e 00be 22a2 373e 319b 3cbe
00000240: 1000 e33b 12b7 babc e1da 663d fbe7 fcbc
00000250: ee2b 3e3e d088 f3bc 60a9 833c 485b 0f3d
00000260: 7460 2d3d 3cc2 23be 451e 203e 9d23 82bd
00000270: c6e4 d9bc a4f4 173d f24a 0c3e ef71 ad3d
00000280: d29c c0bd 1052 b6bd 319d 353e 303a 2cbd
00000290: 8156 5bbd 8cc1 14bd de51 d23d 455e f1bd
000002a0: e1b7 c9bd 463f dfbc 7023 db3d 8ada 543e
000002b0: 38f2 b7bc 982a 54bd e9c6 68bd 505a a73d
000002c0: af4b 0fbd 39b5 5a3d 168b d2bd 1220 31bd
000002d0: 4d1d 39be b20f 19be 196a 68bd c96f 18bd
000002e0: f1b5 053d 9c0a 36bd decb 9fbd 5b4a f53c
000002f0: b50b 53bd 2af6 0f3d 5826 993c 384b ccbd
00000300: 4b3f aa3d 1f02 90bd f9bc 963d 2216 19be
00000310: ebdc 05bd 316d 9ebd 57f8 11be adad e23d
00000320: 0d0b 3fbd 8846 9d3d f0e3 bcb9 a9f5 e03d
00000330: 719b 20ba 2c86 95bd c472 b53d 7637 51bd
00000340: 250d f6bd 8aab d2bd 6a6b 48bc 4523 f43c
00000350: feae 32bc 19cb d33d faf6 0c3d 5203 2dbd
00000360: 738e abbd 1f16 dfbd 2d25 6abd bdc2 a03d
00000370: b4a7 b6bd b46b 7bb9 23fd 37bd 6cae 0dbd
00000380: ca52 b83d cc8a a33d ad32 f13c 690d b3bd
00000390: 3a9e 66bc 9af4 813d 1085 693c 63fa d6bd
000003a0: 6006 debc 9043 143e 7e46 c9bc 95b4 d13d
000003b0: 4601 013e 8338 063d 2a66 d1bd ea4a 023e
000003c0: 82cc a9bc 04be 55bd d34d 89bd 5f02 3fbe
000003d0: 4f31 0b3c 6658 dbbd 2aa8 cebd d16f 163e
000003e0: c8f0 083e dd33 593d da18 babc 6265 09be
000003f0: 29db f7bc 8692 e3bd ddd5 49bd 18fa b93d

bias f4 [5]
-0.1705053 -0.09005678 -0.08636332 0.040353265 0.07131779
00000000: f198 2ebe b06f b8bd 41df b0bd 7749 253d
00000010: 100f 923d
