save/net.pkl (torch, 37839 bytes, 8 tensors)

weight f4 [32, 5]
000000 5f 1f f6 bb ce 4f 81 bc ba ef 8a bb 98 c6 34 bb
       -0.007511064 -0.015785124 -0.0042400034 -0.0027584191
000010 94 e0 2d bb a5 6b 98 ba a1 ad 1c bb 08 31 2d ba
       -0.0026531564 -0.001162876 -0.0023907202 -0.00066067325
000020 81 71 e1 b9 86 eb d9 b9 b6 ff d1 b9 f5 78 56 ba
       -0.0004299991 -0.00041564944 -0.00040054106 -0.0008181476
000030 22 27 6d b9 d9 c7 11 b9 fb 2b 10 b9 18 79 95 ba
       -0.0002261666 -0.00013902727 -0.00013749294 -0.0011403887
000040 cf 51 16 bb cf 8e 26 ba 29 0d d8 b9 1a ec ce b9
       -0.0022936945 -0.00063536776 -0.00041208536 -0.0003946729
000050 b3 e9 d6 39 36 f0 4d b8 ab 91 2f b7 78 f8 49 3a
       0.0004099138 -4.9099523e-05 -1.0464729e-05 0.0007704566
000060 d8 dd ba b9 e2 1c 7e bc 18 46 05 bd f2 77 0b bc
       -0.0003564197 -0.015509816 -0.03253755 -0.008512484
000070 cd f4 c0 bb e4 06 b6 bb 70 9e e4 3d 8f 93 97 bd
       -0.0058885575 -0.0055550206 0.11163032 -0.074011914
000080 68 d4 99 3f 1e 25 26 be 93 b7 72 3f 4a e2 15 ba
       1.2017946 -0.16225097 0.9481136 -0.00057176186
000090 ff 66 98 ba f4 45 a6 b9 77 29 55 b9 04 b6 4a b9
       -0.0011627375 -0.00031714106 -0.0002032871 -0.00019332027
0000a0 9e ba 5c ba f3 9c e5 ba 4f f0 fb b9 1c cd 9c b9
       -0.0008420142 -0.0017518088 -0.00048053495 -0.00029907457
0000b0 20 32 9a b9 c9 62 c6 b9 7d db 4b ba 00 c2 60 b9
       -0.00029410515 -0.00037839104 -0.0007776542 -0.00021434575
0000c0 bc d7 0f b9 23 c8 09 b9 24 bb 74 ba 00 22 f5 ba
       -0.0001371791 -0.00013139895 -0.00093357475 -0.0018702149
0000d0 4f be 07 ba 3a db ae b9 8d 54 a9 b9 75 15 1a bc
       -0.00051781995 -0.00033351203 -0.00032297187 -0.00940453
0000e0 4a fa a0 bc 26 3b ac bb fd a7 61 bb 47 a7 58 bb
       -0.019650597 -0.0052560745 -0.0034432404 -0.003305869
0000f0 9b 18 d8 b9 0b 23 5f ba b4 53 69 b9 8a 1c 1d b9
       -0.00041217063 -0.0008511997 -0.00022251793 -0.00014983318
000100 7f 1e 15 b9 74 84 9f bb e5 18 24 bc f9 99 31 bb
       -0.00014221108 -0.0048680846 -0.010015701 -0.0027099831
000110 57 c1 e3 ba 52 67 de ba dd c9 59 bb 3b e9 dd bb
       -0.0017376345 -0.0016968048 -0.0033231892 -0.006772188
000120 bf ae f3 ba af d1 9b ba 56 2c 99 ba 98 f2 bd ba
       -0.0018591507 -0.0011888052 -0.0011686187 -0.0014491854
000130 61 9c 3e bb 74 d2 51 ba 29 a6 06 ba f2 6f 04 ba
       -0.0029084908 -0.0008004077 -0.0005136454 -0.00050520815
000140 85 37 05 ba 8e 56 88 ba ec 88 96 b9 28 c3 3f b9
       -0.00050818204 -0.0010401772 -0.00028712244 -0.00018287881
000150 75 33 35 b9 13 d8 de bb cb b9 68 bc b0 4a 78 bb
       -0.00017280674 -0.0068006604 -0.014204453 -0.0037886314
000160 32 cd 21 bb c6 a7 1b bb 76 a3 0f ba c0 b4 90 ba
       -0.0024688956 -0.0023751124 -0.00054793747 -0.0011040196
000170 dc e6 9f b9 d9 4f 4a b9 4a 4b 43 b9 2f 6d 86 b9
       -0.00030498847 -0.00019293967 -0.00018624697 -0.0002563982
000180 05 a9 19 ba e7 9d 29 b9 a5 4d cb b8 56 60 c9 b8
       -0.00058616727 -0.00016175919 -9.694257e-05 -9.602371e-05
000190 41 47 e2 bb a0 82 6b bc 97 15 79 bb 0e 3a 25 bb
       -0.006905467 -0.014374405 -0.0038007253 -0.0025211605
0001a0 af f7 1d bb a6 8a fe bb d1 34 86 bc b3 b0 8d bb
       -0.002410393 -0.007767993 -0.016382607 -0.0043240427
0001b0 c8 63 3b bb a4 ec 33 bb d7 85 9c ba 3f d1 20 bb
       -0.002859341 -0.0027454281 -0.0011941743 -0.0024538783
0001c0 07 ed 31 ba ca ba e4 b9 38 ee db b9 df 01 a2 b9
       -0.0006787334 -0.00043626718 -0.00041948422 -0.00030900442
0001d0 80 63 30 ba 53 b7 42 b9 78 2f ee b8 ee a2 e7 b8
       -0.0006728694 -0.00018569575 -0.00011357566 -0.000110452864
0001e0 e1 c1 93 ba e5 f7 16 bb cf d0 27 ba f5 b1 d8 b9
       -0.001127299 -0.002303594 -0.00064016593 -0.0004133132
0001f0 bf 88 ce b9 f1 65 55 bc 01 0c 93 3e 5e b6 92 bf
       -0.00039393266 -0.013024793 0.28720096 -1.1461904
000200 35 3d 48 3e 11 ca 69 bf 29 41 8b bb 4f 05 10 bc
       0.19554599 -0.91323954 -0.004249711 -0.008790328
000210 e1 aa 1b bb 1f 0f c7 ba 72 8b c2 ba 79 bc 6b b9
       -0.0023752975 -0.0015187002 -0.0014842583 -0.00022481558
000220 bc cb 05 ba 3c 2b 0f b9 40 4d b2 b8 ed ba a8 b8
       -0.0005103906 -0.00013653649 -8.50209e-05 -8.045682e-05
000230 e3 e1 5b ba dc 72 eb ba 68 54 02 ba 80 16 a6 b9
       -0.0008387847 -0.0017963308 -0.0004971684 -0.0003167875
000240 31 65 a0 b9 ee dd 55 bb 60 83 da bb 73 79 ec ba
       -0.00030592972 -0.00326335 -0.006668493 -0.0018041566
000250 be 11 98 ba b7 af 94 ba 85 b4 59 bc c8 bf e5 bc
       -0.0011601967 -0.0011343871 -0.013287668 -0.02804555
000260 0d b6 f2 bb e4 29 a3 bb 18 05 9b bb 2a b8 61 ba
       -0.007406956 -0.004979359 -0.004730832 -0.00086105114
000270 9d 85 e4 ba 93 1a fd b9 f1 57 a3 b9 ef 31 9c b9
       -0.0017434839 -0.0004827572 -0.00031155304 -0.00029791842

bias f4 [32]
000000 0a 76 ce 3e fc 28 c7 bf e7 5b 29 c0 a1 5d cc bf
       0.40324432 -1.5559382 -2.6462343 -1.5966073
000010 a7 1e ad c0 fc e8 a0 3f 56 94 af 40 6c 82 12 c0
       -5.4099917 1.2571101 5.4868574 -2.2892103
000020 45 59 f2 bf a8 aa 2c c0 54 f4 e6 bf 2b 71 27 3f
       -1.8933493 -2.697916 -1.8043313 0.65407056
000030 3f d0 26 c0 f8 75 a9 bd b7 f2 f8 be 60 95 ad bf
       -2.6064603 -0.08274454 -0.48622677 -1.3561211
000040 0d db 19 c0 30 8d 94 3e 5d df 15 c0 76 b4 3e c0
       -2.4039948 0.29013968 -2.341758 -2.9797645
000050 d9 f2 99 3e 73 76 df 3e 91 b3 c3 bf d4 e8 35 c0
       0.3006809 0.43645057 -1.5289174 -2.8423357
000060 cd d6 cb bf 91 e3 eb 40 6d 53 65 be 44 9a 47 c0
       -1.5924927 7.371529 -0.22395106 -3.1187906
000070 74 4f ec bf 8e bf 02 bf a6 d3 88 3f 41 0f f0 bf
       -1.8461747 -0.5107354 1.068959 -1.8754655

weight f4 [128, 32]
000000 5b 69 15 b4 6e 3a 9d b2 a8 d1 c6 31 f4 2e 8c b1
       -1.3915034e-07 -1.8303776e-08 5.7863936e-09 -4.079874e-09
000010 eb f2 b9 b5 6b 09 56 b4 0e 31 88 b9 38 32 20 b1
       -1.3854273e-06 -1.993373e-07 -0.0002597649 -2.331161e-09
000020 cc b2 5b b2 b8 c2 5b b1 17 93 27 b2 a3 af 3c b4
       -1.2788131e-08 -3.197938e-09 -9.754124e-09 -1.757276e-07
000030 be 2b 6d b1 d4 63 b1 b3 5b 9b 88 b3 8c 3e c6 b2
       -3.4512904e-09 -8.2603634e-08 -6.3612525e-08 -2.3078677e-08
000040 a8 83 b6 b1 02 6f b2 b3 70 2c e5 b1 34 5c 45 b1
       -5.3118647e-09 -8.308963e-08 -6.669829e-09 -2.8719684e-09
000050 7a 0a 0b b4 bf f5 ef b3 87 66 58 b2 38 2c cc 31
       -1.2949195e-07 -1.1174006e-07 -1.2596167e-08 5.9422085e-09
000060 92 cc 4a b2 85 ff 77 39 fd 95 95 b3 59 36 50 b1
       -1.1804461e-08 0.00023650944 -6.965636e-08 -3.0298877e-09
000070 7a 2f b2 b2 70 43 32 b3 f3 d0 4d b4 94 f7 83 b1
       -2.0743517e-08 -4.150519e-08 -1.9168128e-07 -3.840748e-09
000080 94 a4 aa b7 b2 b3 57 b6 00 28 12 b3 31 28 80 b6
       -2.0342217e-05 -3.2142093e-06 -3.4029654e-08 -3.819376e-06
000090 04 7a c0 35 6d 34 38 b8 fd ac 0f bd 4c cf b7 b5
       1.4340626e-06 -4.3917844e-05 -0.035077084 -1.3694894e-06
0000a0 ec 90 17 b6 42 df 2f b5 0c fc b1 b5 ee b3 c8 b7
       -2.258511e-06 -6.5517463e-07 -1.3260883e-06 -2.3925644e-05
0000b0 a0 3f 04 b5 fc 0e 71 b7 7c 75 15 b7 ca 4a 26 b6
       -4.926642e-07 -1.4368208e-05 -8.908446e-06 -2.477946e-06
0000c0 a6 0a 81 b5 92 f7 ab b7 b6 48 a3 b5 06 83 01 b5
       -9.614348e-07 -2.0500072e-05 -1.2165608e-06 -4.824691e-07
0000d0 18 1d 95 b7 10 fc c4 b7 97 e0 62 b6 b6 d7 10 b5
       -1.7775732e-05 -2.3482397e-05 -3.3807353e-06 -5.395808e-07
0000e0 ae 8a 78 b6 5d 44 42 3d f6 5f 5e b7 cb 05 10 b5
       -3.7035602e-06 0.047428478 -1.3254574e-05 -5.365261e-07
0000f0 f0 b3 0c 35 f7 49 22 b7 15 c0 15 b8 51 2f 33 b6
       5.241591e-07 -9.673174e-06 -3.570326e-05 -2.670062e-06
000100 d9 2b 1b 34 87 fd 8d 33 8b d3 21 32 18 08 4b 33
       1.4451452e-07 6.6119405e-08 9.419533e-09 4.7271982e-08
000110 28 fa ae bb 6a d6 ae 34 da 85 b4 b8 9c 76 09 32
       -0.0053398795 3.2566032e-07 -8.608001e-05 8.001418e-09
000120 3e 34 96 32 fc 14 ee 31 64 d2 be 32 7e dd 9e 32
       1.7486055e-08 6.9290973e-09 2.2214586e-08 1.8494344e-08
000130 68 10 fc 31 25 dd 56 34 e6 4d dd 33 22 38 8e 32
       7.3360304e-09 2.0010755e-07 1.0305284e-07 1.6556502e-08
000140 b8 64 82 32 ce 7a 75 b3 ae ee 87 32 86 01 df 31
       1.5179793e-08 -5.7155198e-08 1.5824607e-08 6.4903274e-09
000150 f5 a9 1b 34 6a 8f 83 32 8f 67 ab 33 98 c5 49 b2
       1.449733e-07 1.5315624e-08 7.981645e-08 -1.17446675e-08
000160 ca ff bf 32 67 57 86 ba 62 f5 40 34 4e ec 0c 32
       2.2351646e-08 -0.0010249437 1.7970663e-07 8.202802e-09
000170 08 e2 01 33 dc 1d 0d 34 06 ab 1b 34 06 5c d8 32
       3.0240727e-08 1.3142511e-07 1.4497718e-07 2.5187557e-08
000180 3e 04 52 b7 d9 a8 b8 b5 0b 4e a6 b4 8a 38 64 b5
       -1.2517963e-05 -1.375821e-06 -3.0976693e-07 -8.5018894e-07
000190 aa 48 5d 36 4c 91 d5 b7 1f 55 7c bc f0 d8 03 b5
       3.2973862e-06 -2.5459238e-05 -0.015401154 -4.911699e-07
0001a0 ca 96 be b5 9c b8 97 b4 4e b5 0c b5 1a ec 56 b7
       -1.4199989e-06 -2.8260263e-07 -5.24179e-07 -1.2810366e-05
0001b0 a0 f2 a4 b4 5f da 18 b7 dc 5d c4 b6 b6 de f6 b5
       -3.0723913e-07 -9.1107495e-06 -5.852182e-06 -1.8393246e-06
0001c0 c9 37 f9 b4 8c ff 1c b7 fc 47 e9 b4 b8 67 5e b4
       -4.6420453e-07 -9.357824e-06 -4.3452008e-07 -2.0713094e-07
0001d0 6b a5 4e b7 7e 5d 33 b7 08 cb a1 b5 74 b0 a3 34
       -1.2317071e-05 -1.0690999e-05 -1.2054525e-06 3.0489502e-07
0001e0 80 51 ad b2 29 1b 14 3c 08 6e b4 b6 88 68 34 b4
       -2.0176913e-08 0.009039679 -5.3772274e-06 -1.6801835e-07
0001f0 2d 7b c3 b5 b9 b7 86 b6 96 4f 97 b7 ca ee 3e b5
       -1.4564481e-06 -4.0148993e-06 -1.8037663e-05 -7.1128e-07
000200 72 53 1d 39 96 57 d9 37 80 8f da b5 63 31 cb 37
       0.00015003773 2.5909201e-05 -1.628403e-06 2.4222483e-05
000210 26 34 c0 b9 3a 49 99 39 7b 2e 74 3e ca f7 47 37
       -0.00036659947 0.00029236992 0.23845856 1.1919017e-05
000220 bd 08 8c 37 ef 20 b3 36 91 5b a6 37 45 49 39 39
       1.669337e-05 5.3384497e-06 1.9831381e-05 0.0001767027
000230 85 19 bd 36 2c 8d 6f 38 3d 75 86 38 e1 b4 f9 37
       5.63561e-06 5.7113517e-05 6.411455e-05 2.9767341e-05
000240 82 9b b9 36 97 b6 07 39 e6 0e cd 36 1f 6a 7e 36
       5.531533e-06 0.00012942623 6.1112105e-06 3.791072e-06
000250 9f fd 0d 39 cf c8 1c 39 c4 8b a0 37 a4 92 7d b7
       0.00013541289 0.00014952126 1.913857e-05 -1.5114118e-05
000260 58 89 ff 36 10 9c 7e be 1f a6 ad 38 ad f9 38 36
       7.615581e-06 -0.2486422 8.280225e-05 2.7563467e-06
000270 96 78 a0 37 d8 a9 83 38 50 cc 85 39 68 0f 9c 37
       1.9129639e-05 6.2782026e-05 0.00025519961 1.8603823e-05
000280 d8 c2 c0 37 a7 68 8c 36 c8 a5 91 34 fc 74 5a 36
       2.2978915e-05 4.1845083e-06 2.7128976e-07 3.2552625e-06
000290 82 6e d2 ba 47 66 4d 38 6c bd 0e 3d 92 4e 29 35
       -0.0016054662 4.8971062e-05 0.034848616 6.307174e-07
0002a0 0c 86 25 36 ef 0e 19 35 67 d9 5e 36 d9 32 d6 37
       2.4664942e-06 5.701867e-07 3.3207123e-06 2.5534466e-05
0002b0 ff 8d 26 35 80 5c 73 37 9c 40 3b 37 8c ff 7b 36
       6.204645e-07 1.45054655e-05 1.1161112e-05 3.7550662e-06
0002c0 3d f9 56 35 d2 cf 92 37 b6 d8 73 35 46 33 d0 34
       8.00839e-07 1.750133e-05 9.083991e-07 3.8780325e-07
0002d0 d2 13 b1 37 18 92 a7 37 7a 63 43 36 cc fd b0 34
       2.1109274e-05 1.9975982e-05 2.9115167e-06 3.2967216e-07
0002e0 a5 42 a6 35 20 72 f4 bc f2 a7 54 37 f2 5f cb 34
       1.238736e-06 -0.029839575 1.26752875e-05 3.7881506e-07
0002f0 ca 22 23 36 0a 5b 1e 37 fd 3b 18 38 d4 b4 1f 36
       2.4309143e-06 9.438731e-06 3.6295492e-05 2.3798102e-06
000300 63 6f 15 37 0b 69 f0 35 e4 a8 5e 34 e5 f7 09 36
       8.907026e-06 1.7911965e-06 2.0736803e-07 2.0558884e-06
000310 b0 d0 42 39 67 2b d4 37 c3 5e a2 3c a4 92 54 35
       0.00018579024 2.529258e-05 0.019820577 7.9189545e-07
000320 a0 c1 a8 35 2a 0e a9 34 a4 b2 95 35 55 e6 75 37
       1.2573328e-06 3.148901e-07 1.1153356e-06 1.4656766e-05
000330 af 2f b9 34 ac 9b 2e 36 d7 5e b9 36 c1 b8 f4 35
       3.449363e-07 2.6018633e-06 5.5244705e-06 1.8233187e-06
000340 7c 05 8d 34 d6 bc 2a 37 f4 39 9f 34 a2 ee 48 34
       2.6267287e-07 1.0176756e-05 2.9658224e-07 1.8713266e-07
000350 0c 68 32 37 f3 0c 47 37 ce cd c9 35 38 1e 5e 34
       1.0633852e-05 1.1864339e-05 1.5035564e-06 2.0686355e-07
000360 54 69 2e 35 8f bc 82 bc b6 7f f9 36 4c cd 52 34
       6.4973324e-07 -0.015959052 7.435646e-06 1.963246e-07
000370 c3 dd d6 35 93 7c b0 36 bf 64 86 37 7b 9d d1 35
       1.6008784e-06 5.259711e-06 1.6020958e-05 1.5617546e-06
000380 34 45 d2 b6 bc cb 29 b5 80 cb 3f 32 36 74 57 b5
       -6.266544e-06 -6.325388e-07 1.1163934e-08 -8.026285e-07
000390 4d 95 a7 38 db d3 4e b7 31 3b 63 bc 0f 6b 05 b4
       7.99099e-05 -1.2327883e-05 -0.013869093 -1.2425538e-07
0003a0 19 c7 40 b5 2b b9 1a b4 2c f2 7d b4 a3 4e f9 b6
       -7.18153e-07 -1.4409731e-07 -2.3650563e-07 -7.429933e-06
0003b0 78 51 2b b4 23 cf 6b b6 15 5c 40 b6 77 b8 5f b5
       -1.5955254e-07 -3.5138298e-06 -2.8663828e-06 -8.3342405e-07
0003c0 5e ff 8a b4 68 f6 a3 b6 fc f4 9a b4 bc e2 e9 b3
       -2.5890307e-07 -4.886464e-06 -2.8862985e-07 -1.0891151e-07
0003d0 4a 86 ae b6 1d c1 c3 b6 74 df 8e b5 30 2e d8 b3
       -5.2012374e-06 -5.833934e-06 -1.0644858e-06 -1.0066685e-07
0003e0 f8 d8 bf b3 fb 47 08 3c 81 43 4e b6 71 88 04 b4
       -8.933597e-08 0.008317943 -3.0735685e-06 -1.2343095e-07
0003f0 ee b5 7a b5 99 3a 2e b6 6e a6 05 b7 e4 43 0c b5
       -9.3397e-07 -2.5962129e-06 -7.966168e-06 -5.225286e-07

bias f4 [128]
000000 28 b9 dd 3a a1 f3 e0 bd 73 a8 8d 3b c4 74 b2 3d
       0.0016916143 -0.109839685 0.004323059 0.087136775
000010 c2 27 7f 3c 16 d4 02 be e9 12 2c bd 05 4b 4c 3d
       0.015573444 -0.12776217 -0.04201022 0.04987623
000020 89 a7 44 3d 2f 82 2b bd b9 da 7e bd 02 01 ad bd
       0.048011336 -0.0418722 -0.06222031 -0.08447458
000030 f3 1f d2 3d 03 ea 64 3d 74 ac a5 bd d8 bb fb bc
       0.1026 0.055887233 -0.080895334 -0.03072922
000040 d8 22 66 bb e1 5f a1 3d 80 03 14 bd bd 70 1c bc
       -0.0035115983 0.078796156 -0.03613615 -0.009548363
000050 b8 26 03 3d d0 b0 0e 3e ab 90 4d 3d 23 8d 89 bd
       0.032019347 0.13934636 0.050186794 -0.06716373
000060 e8 20 27 bd eb 10 d9 bc 5b fa f4 bb 65 5e b3 3c
       -0.040802866 -0.026497325 -0.0074761338 0.021895597
000070 95 ca 34 be 09 2c a7 bd ae d2 86 3d 98 0e 01 3d
       -0.17655404 -0.08162696 0.06583153 0.03150806
000080 e0 a6 f1 bc 15 c6 ad 3c ae 4c e9 bd 46 da b6 bd
       -0.029498518 0.021212617 -0.113915786 -0.08928351
000090 92 bc cc bc 88 20 4a 3c c2 7a e9 bd ce 58 3c 3c
       -0.024992261 0.012336858 -0.11400367 0.011495782
0000a0 ac 66 fd 3c 61 fd 98 bc a7 ec 36 3e f3 ac 47 3c
       0.030932747 -0.018675508 0.17863713 0.01218723
0000b0 f5 cc 07 3e 29 c7 09 bc 18 2e 90 bd 2f fa 35 3c
       0.13261779 -0.0084093 -0.07040042 0.011107012
0000c0 a8 1a 3f bd 7e b4 29 ba 27 31 87 bc 61 fd 5a 3d
       -0.04665628 -0.0006473734 -0.01650293 0.053464297
0000d0 4b 79 8d 3d eb 7f 42 be 59 c6 0d bd db 03 a8 bd
       0.069079004 -0.1899411 -0.034612987 -0.0820386
0000e0 a2 b0 50 bc 1a 94 16 3e 10 d9 9f 3b 18 72 1c 3d
       -0.012737425 0.14704934 0.004878171 0.038194746
0000f0 bb 56 41 be 05 fb b9 3c e8 da c9 3c c1 91 d8 bd
       -0.18880741 0.022702703 0.024640515 -0.10574675
000100 3b 9e f2 bd fa 10 00 be a9 8e 25 3c 07 08 0f 3c
       -0.11846586 -0.12506476 0.010104814 0.008729941
000110 77 2a 4f 3c b1 5d 55 3e ff cc cb bd b9 5e 14 be
       0.012644402 0.20836522 -0.09951209 -0.14489259
000120 a8 ba be 3d e6 86 8d bd 70 93 71 be a2 08 2b 3d
       0.093129456 -0.069104955 -0.23591399 0.04175628
000130 f5 ae ab bd 4a 04 83 bd 3d 27 0d 3d 97 63 b4 3d
       -0.0838298 -0.063973024 0.03446125 0.08808058
000140 cd c1 06 3c bc 24 e4 3b 4a aa c5 bd da 9b 88 bd
       0.008224917 0.006962387 -0.09651621 -0.06670351
000150 96 df 74 bc ff d2 8a 3d 58 bc 22 be c8 9e 12 be
       -0.014945885 0.067785256 -0.1589216 -0.14318383
000160 21 54 8d bd 16 ef 63 be 33 76 47 3d 80 ab 31 3d
       -0.06900812 -0.22259173 0.048696708 0.043376446
000170 42 80 40 bc 27 20 0a bd 95 b3 32 bd 59 05 ef 3c
       -0.011749329 -0.03372207 -0.043628294 0.029177355
000180 60 cc df bd 7d 96 ad 3c a4 75 b6 3e 32 27 84 3d
       -0.10927653 0.021189922 0.35636628 0.064527884
000190 5b 67 9c bd 86 d7 cd ba 94 fe d8 bd a4 1e 12 bd
       -0.07636901 -0.001570449 -0.10595432 -0.035673752
0001a0 a1 de 0e 3e d6 69 16 bd 95 4d 38 3d e0 34 a6 3a
       0.13952114 -0.036722027 0.044995863 0.0012680553
0001b0 17 64 1e 3b 44 75 89 3d a8 29 61 bc fc 58 ab bd
       0.0024168545 0.0671182 -0.013742842 -0.08366582
0001c0 38 bf 9f 3d 6a df cb bd ff c3 4c bc 48 2a 9e bd
       0.07800144 -0.09954722 -0.012497901 -0.07722908
0001d0 fe d9 9f 3d 67 31 23 3d 01 7e 99 3d 5a 47 48 3e
       0.078052506 0.039842036 0.074947365 0.19558468
0001e0 62 4b 0a bd 11 45 34 3d 81 81 2a be 1a 2d d6 3d
       -0.033763297 0.04401118 -0.16650964 0.10457821
0001f0 ff b2 ff bb 05 e5 19 be ef 9a d0 ba 54 ff fe bc
       -0.0078033204 -0.1502877 -0.0015915314 -0.03112761

weight f4 [32, 128]
000000 0b 76 60 36 fb 90 e3 39 62 a0 22 b6 01 32 64 39
       3.344731e-06 0.00043404833 -2.4233236e-06 0.00021762402
000010 f6 71 50 bb ac 61 e7 b9 56 aa 5e b9 78 4c 00 39
       -0.0031806207 -0.00044132525 -0.00021235025 0.00012235518
000020 c1 7f 70 39 f8 f0 56 b9 7f 77 8d 38 d1 d1 6c b9
       0.00022935776 -0.00020498398 6.745662e-05 -0.00022584877
000030 6a 82 8b 39 59 dc 19 39 26 89 a1 39 05 8f f6 b8
       0.00026609312 0.00014673303 0.00030810497 -0.000117568336
000040 8c c9 6a bb 68 a4 ed b9 8b 99 00 b9 5f 5a 83 b7
       -0.0035825698 -0.00045326655 -0.0001226423 -1.56585e-05
000050 ef e2 14 39 a9 be 10 3a ad ea 13 b8 9d 45 14 39
       0.00014198919 0.00055215746 -3.526609e-05 0.00014140313
000060 3e ca 53 b9 50 dc 27 b8 72 50 49 b7 9f b2 71 38
       -0.00020197869 -4.0021085e-05 -1.1999264e-05 5.762523e-05
000070 58 78 1c ba 72 94 5d b9 e6 00 5e 3a 19 6b b6 38
       -0.00059688604 -0.00021131503 0.0008468762 8.698385e-05
000080 0c cd 4f b8 a0 3b 0b ba 01 31 8f 3b aa 25 72 b9
       -4.954361e-05 -0.0005311314 0.0043698554 -0.0002309295
000090 87 b3 82 b8 b0 f6 97 3a 77 cf 3e 3b 73 06 ef b7
       -6.2323226e-05 0.0011593904 0.0029115358 -2.8494023e-05
0000a0 1f 9b 63 38 29 2c 8b b8 ee da 03 3a cc b6 3b 3b
       5.4265485e-05 -6.636262e-05 0.00050298765 0.002864289
0000b0 fd 08 f7 39 6b b6 19 37 e3 df be ba 07 36 06 3b
       0.00047118208 9.161983e-06 -0.0014562573 0.002047898
0000c0 ba c8 01 b9 c2 a0 88 b6 29 56 80 ba 3f 60 ba b9
       -0.00012377175 -4.0718305e-06 -0.0009791303 -0.00035548393
0000d0 1a fd 39 39 1f 4b 45 bb 66 2a a9 ba 0a f8 4d b9
       0.00017737263 -0.003010459 -0.0012906312 -0.00019642725
0000e0 46 be 3f b9 08 33 16 ba 59 b3 ee 37 c3 a0 83 39
       -0.00018286062 -0.000572965 2.8455326e-05 0.00025106044
0000f0 9b 63 d8 3a 41 1e 20 3b fc 9c ab 38 b8 a6 44 3b
       0.0016509177 0.0024432095 8.183156e-05 0.0030006599
000100 cf 78 a3 3a 6e 71 a9 b9 36 c9 16 3b b9 cb 65 38
       0.0012471917 -0.00032318704 0.0023008115 5.4787586e-05
000110 31 b1 9d 37 df 48 09 3a 82 b8 9c b9 84 c8 d9 b9
       1.879837e-05 0.0005236994 -0.00029892108 -0.0004153886
000120 71 79 9d 39 ce f3 cf 39 8d de 69 bb df e5 d3 38
       0.00030035854 0.00039663765 -0.003568563 0.00010104081
000130 53 d9 62 b9 52 ce 91 b9 4e b8 80 39 16 5b 5a 39
       -0.00021633999 -0.00027810276 0.0002455138 0.00020824032
000140 f3 f1 96 b9 cc 25 4f 38 b6 ae 6a ba 59 e7 a8 bb
       -0.00028790496 4.9387847e-05 -0.00089524256 -0.005154532
000150 c6 bd 36 3b aa 35 72 39 27 a6 67 3a a5 61 b6 b9
       0.002788411 0.0002309891 0.00088367093 -0.00034786496
000160 8c 00 d1 b9 a8 49 e8 b9 c0 5a 36 39 0e b9 d0 38
       -0.00039863994 -0.00044305366 0.0001739068 9.952682e-05
000170 c9 55 f7 b7 46 db 5f 39 2b ac 21 b9 ea 73 3a 38
       -2.9484641e-05 0.00021348623 -0.00015418294 4.445381e-05
000180 6f 65 3c 3a b8 3f 06 39 3d f7 02 3a 74 d6 41 39
       0.00071867456 0.00012802973 0.0004995948 0.00018485804
000190 49 46 b9 3b e0 9f 93 b6 b2 30 92 b9 80 7e de 3a
       0.0056541306 -4.3995533e-06 -0.0002788357 0.0016974956
0001a0 fb 05 d4 ba f3 a2 d6 b8 7e 0b fe ba 02 ef b1 bb
       -0.0016176099 -0.00010234667 -0.0019382087 -0.0054301033
0001b0 d1 f8 f0 3a 61 29 2b 39 06 e5 04 ba 5e 69 e1 b7
       0.00183847 0.00016323246 -0.00050695275 -2.6871156e-05
0001c0 dc 46 9c 39 76 47 96 b9 3c 4a ea ba 7a ea 0d b8
       0.00029807433 -0.00028663472 -0.0017874907 -3.3835393e-05
0001d0 53 70 d0 b9 44 ba 50 39 4b 2d 27 39 2e 8b 0e bb
       -0.0003975654 0.00019905815 0.00015943234 -0.0021750438
0001e0 ac 87 86 3a cd 5e 97 39 6d 95 6e 3b 72 79 14 ba
       0.0010263822 0.00028871596 0.0036404983 -0.0005663849
0001f0 90 17 ee b9 5f 14 d3 b9 66 58 8a b8 23 61 26 3b
       -0.00045412453 -0.00040260234 -6.596818e-05 0.0025387488
000200 18 a2 f1 b7 bc d1 cc bb be 7d ac 38 0b 61 22 bb
       -2.880492e-05 -0.006250588 8.2250204e-05 -0.002477708
000210 fc cd 27 3d 00 fd a3 3b 18 64 28 3b 59 db b0 ba
       0.040967926 0.005004525 0.0025694426 -0.0013493105
000220 6d 81 27 bb bc 1c 17 3b 62 e9 ae ba aa 36 18 3b
       -0.0025559322 0.0023057899 -0.00133447 0.0023225942
000230 10 3e 35 bb 73 3c cf ba 59 84 93 bb 4d a0 a7 3a
       -0.00276554 -0.0015810862 -0.004501861 0.0012788862
000240 82 37 38 3d 58 38 d4 3b 10 7c c1 3a a3 4c 21 39
       0.04497481 0.0064764433 0.0014761705 0.00015382706
000250 a1 5d cc ba 9c 42 cd bb 62 84 54 3a d3 ec 11 bb
       -0.0015591868 -0.006264044 0.0008106885 -0.0022266402
000260 22 3c 1b 3b d5 75 d8 39 fe 73 01 39 3e bc 1a ba
       0.0023686965 0.00041286522 0.00012345609 -0.0005902684
000270 9d ae d7 3b f6 d1 0d 3b d5 e8 2a bc 56 41 5c ba
       0.006582095 0.002164004 -0.010431488 -0.000840207
000280 7d 34 08 3a 0c 59 d9 3b 90 31 69 bd 96 66 1e 3b
       0.00051958096 0.0066329297 -0.056932032 0.0024170033
000290 9a 15 38 3a 07 bc 6b bc 24 c3 1e bd 6f 74 04 3a
       0.0007022262 -0.014388091 -0.03876032 0.00050527503
0002a0 2c 1a 03 ba 9e 87 4b 3a 35 4e b1 bb 7b b8 12 bd
       -0.00050011533 0.0007764044 -0.0054109343 -0.035820466
0002b0 f5 be ac bb 78 f7 45 b9 d3 84 94 3c c3 b9 ce bc
       -0.0052717873 -0.00018879573 0.018129742 -0.025235062
0002c0 d8 12 ae 3a f4 67 5e 38 65 bc 47 3c 1e 32 9f 3b
       0.0013280762 5.302574e-05 0.012190913 0.0048582694
0002d0 b1 3d f6 ba c4 f2 18 3d a3 4d 86 3c bc a7 0e 3b
       -0.0018786696 0.037340894 0.016394442 0.0021767458
0002e0 39 0d 17 3b 49 fb 08 3c 5d 6c b4 b9 79 4d 48 bb
       0.0023048653 0.008360692 -0.00034413012 -0.0030563755
0002f0 24 80 bb bc bb d4 f6 bc da 2d 7a ba 07 38 23 bd
       -0.02288825 -0.030130735 -0.00095435756 -0.039848354
000300 75 04 89 bc a1 be 4b 3b 22 fa e8 bc d3 a5 23 ba
       -0.016725758 0.0031088965 -0.028439585 -0.0006242666
000310 84 26 56 b9 a0 44 a6 bb bb 2e 59 3b 2e 31 88 3b
       -0.00020422979 -0.0050740987 0.0033139426 0.0041562533
000320 ad de 49 bb ae b1 b5 bb ac cc 34 3d 05 85 84 ba
       -0.003080289 -0.0055448627 0.044140503 -0.0010110444
000330 39 4d 0f 3b de 05 57 3b ca fc 42 bb 20 96 0e bb
       0.0021866097 0.0032809894 -0.0029752725 -0.0021756962
000340 1f 37 73 3b ed 51 20 ba 38 97 33 3c 9c 7f 86 3d
       0.0037111712 -0.00061157235 0.010961346 0.06567308
000350 5f e9 11 bd 4d ca 33 bb 51 39 44 bc 18 a5 65 3b
       -0.03562295 -0.0027433813 -0.011976556 0.003504103
000360 e7 95 9d 3b 9b 49 6f 3b 18 b6 fc ba 42 4e 87 ba
       0.0048091295 0.0036512378 -0.0019280342 -0.0010323005
000370 2c df af 39 59 f4 39 bb c0 23 e3 3a ee 62 be b9
       0.00033544877 -0.0028374402 0.001732938 -0.00036313332
000380 cf ed 21 bc 73 ac be ba e5 55 42 bb ac d6 02 bb
       -0.009883358 -0.0014547243 -0.0029653248 -0.001996438
000390 d0 1b 94 bd d4 cd 29 38 d5 17 35 3b f0 e9 b2 bc
       -0.07231867 4.0484432e-05 0.0027632613 -0.021840066
0003a0 63 d9 b2 3c fa e5 96 3a 3c 0b c8 3c 5b 0c 90 3d
       0.021832174 0.001151263 0.02441942 0.070336066
0003b0 72 b9 b9 bc a2 4d d7 ba e6 03 d4 3b b0 42 79 37
       -0.022671435 -0.0016426335 0.0064701913 1.4857083e-05
0003c0 e7 29 57 bb 80 20 57 3b 1d 31 b6 3c 67 c5 e3 39
       -0.0032831372 0.0032825768 0.022240216 0.0004344389
0003d0 c2 ce 9f 3b fc 7a 12 bb 12 f1 d0 ba 2d 9d f3 3c
       0.0048769424 -0.0022351136 -0.0015940985 0.029738033
0003e0 ca ba 56 bc 79 f6 63 bb 0d 8c 44 bd 66 50 fd 3b
       -0.013106057 -0.003478436 -0.047985125 0.0077305315
0003f0 c2 68 bb 3b 83 7e 8c 3b af b3 5d 3a a0 ad 05 bd
       0.005719275 0.0042875423 0.0008457256 -0.032636285

bias f4 [32]
000000 e1 b0 55 be c6 80 fc be f6 08 2e 3f 39 c4 de bf
       -0.20868255 -0.49316996 0.67982423 -1.7403632
000010 1b d5 85 3f d3 e1 f6 3f 53 08 43 3f 1a 6c 30 40
       1.045566 1.9287666 0.76184577 2.756598
000020 24 2c cc bf b7 bc e8 be de 25 34 3f 0f a5 00 c0
       -1.5950971 -0.45456478 0.7037028 -2.0100744
000030 8c fc 11 c0 fd 8f d1 bf 72 c5 84 bf 88 30 d1 bf
       -2.2810392 -1.6372067 -1.0372756 -1.6342936
000040 af 26 c1 bf 39 08 af 3e 7e 0e 22 40 d6 c5 f3 3e
       -1.508993 0.3418596 2.5321345 0.47611874
000050 9d 83 d2 bf fc e2 35 3f 31 d2 b7 bf 63 cd 83 bf
       -1.6446415 0.71049476 -1.436102 -1.0297054
000060 4c 0f 03 c0 ad 7a a9 bf b6 32 00 bf 18 3c 58 bf
       -2.0478086 -1.3240563 -0.5007738 -0.84466696
000070 1d 2c c7 be fd ed 79 c0 3b 88 07 c0 ac 61 98 3f
       -0.38900843 -3.9051507 -2.1176898 1.1904807

weight f4 [5, 32]
000000 f6 ee ac bb b3 24 87 3d 61 50 a3 3d 11 42 c1 bc
       -0.00527751 0.06598797 0.079743154 -0.023591073
000010 b5 30 02 be d4 57 94 3a 94 8e fc 3c 08 7b ec bb
       -0.12713893 0.0011317679 0.030829705 -0.007216815
000020 47 f6 f2 bd ae 1a a4 3e f4 7d 48 bd 30 49 ba bc
       -0.1186338 0.32051605 -0.048948243 -0.022739977
000030 aa 6e 89 bc 59 1a 60 bd 37 61 78 3d 6a 29 80 be
       -0.016776402 -0.054712627 0.060639586 -0.25031596
000040 86 e0 c6 bd 75 01 12 be 2d 0b 06 be cc 04 43 bd
       -0.09710793 -0.14258368 -0.130902 -0.047611997
000050 87 d2 88 b9 06 bf 6c ba dd b4 8f bd 47 9d b2 bc
       -0.00026096797 -0.000903115 -0.07016919 -0.021803511
000060 9e 22 44 bd 37 3d d8 3d 30 5e a6 bc aa 11 ac bc
       -0.047884576 0.10558551 -0.020308584 -0.021004517
000070 7c c0 28 3d 55 52 4f bd b4 c4 4c 3d d0 82 f2 3d
       0.041199192 -0.050615627 0.04999228 0.11841357
000080 e3 ec 77 bb e0 93 71 3d c3 06 84 3d 44 eb 46 bc
       -0.0037830404 0.058978915 0.06446602 -0.012141053
000090 f8 ed ec bd 39 3b e6 bb 88 90 be 3c 20 5c 97 bc
       -0.115688264 -0.007026103 0.023262277 -0.018476546
0000a0 bd 66 c8 bd 87 9d 94 3e 8e 41 38 bd 27 e1 2f bc
       -0.09785221 0.29026434 -0.044984393 -0.010734833
0000b0 82 70 94 bb 40 3f 23 bd c1 28 67 3d d5 26 5f be
       -0.0045300135 -0.03985524 0.05643535 -0.21792157
0000c0 68 7b 9e bd ac a0 02 be ab e1 02 be d3 85 2f bd
       -0.077383816 -0.12756604 -0.12781398 -0.042852234
0000d0 ee 3a d6 3b 17 4c 60 bb ae 45 59 bd a4 ac 5f bc
       0.0065377867 -0.003422504 -0.053044967 -0.013652001
0000e0 52 6e fb bc fb 0a c7 3d 58 9e 72 bc a9 91 65 bc
       -0.030692253 0.09718891 -0.01480826 -0.014011779
0000f0 7a 06 15 3d da b5 dc bc 3f 9d 54 3d 7a 8d c7 3d
       0.03638313 -0.026942182 0.051907774 0.097437814
000100 16 23 4b 3c 1d 3a 0f be f3 e3 32 be d2 d8 75 3d
       0.012398502 -0.13987012 -0.17469768 0.06002123
000110 4c a9 89 3e ab 17 50 bc 8b 3b 90 bd 24 ac f8 3a
       0.26886976 -0.012700955 -0.07042607 0.00189722
000120 ed 4a 87 3e 13 9a 30 bf 97 c5 cf 3d fc 8a 74 3d
       0.2642435 -0.689851 0.10145109 0.05970286
000130 d0 8a 45 3d 13 ab 01 3e a4 a1 ff bd 8a 8f 0c 3f
       0.048228085 0.12662916 -0.124820024 0.54906523
000140 47 5a 5e 3e ca b1 9c 3e 05 33 8a 3e 5c 5b cc 3d
       0.21714126 0.30604392 0.2699205 0.09978363
000150 47 f8 17 3c 39 49 09 bb b5 9c 22 3e e2 92 56 3d
       0.0092755025 -0.0020948185 0.15880091 0.052386172
000160 ef fa e8 3d 50 bf 61 be b7 93 3d 3d db 9f 4b 3d
       0.11375987 -0.22045636 0.04628345 0.049712997
000170 f2 a2 b0 bd 89 7b 03 3e 26 6e c5 bd 53 cd 85 be
       -0.08624829 0.12840094 -0.0964015 -0.26133212
000180 f1 4b 90 3b 4f 89 9b bd fc 1f a9 bd 69 ff 66 3c
       0.004403584 -0.07594549 -0.08258054 0.01409898
000190 2d 5d 16 3e 06 11 38 3c df bb eb bc bc 7a db 3c
       0.14683981 0.011234527 -0.028776107 0.026791923
0001a0 25 0a f7 3d d9 02 b8 be 65 36 6e 3d d9 d4 3d 3c
       0.12062482 -0.35939673 0.058157343 0.011586391
0001b0 ae 21 59 3b 8e 73 49 3d 08 fb 95 bd 62 b1 88 3e
       0.0033131647 0.049182467 -0.07323271 0.26697832
0001c0 7f cd c5 3d 98 dc 23 3e 29 03 26 3e cf 1d 62 3d
       0.09658336 0.16002119 0.16212143 0.05520421
0001d0 6b 55 2c bc b2 a0 b7 3b fa b8 89 3d b2 0e 8a 3c
       -0.010518412 0.005603873 0.067247346 0.01685271
0001e0 0f 0d 1d 3d b7 66 ff bd 14 c4 99 3c 31 af 8d 3c
       0.03834253 -0.12470763 0.018770255 0.017295452
0001f0 23 af 42 bd a3 c8 ea 3c 96 17 8d bd a7 7b fa bd
       -0.047530305 0.028660124 -0.06889264 -0.12230616
000200 2c 4a 01 bc 50 7e b7 3d c2 fc e5 3d e8 1c 1e bd
       -0.007891219 0.08959639 0.1122985 -0.038601786
000210 d8 13 2f be 38 21 0a 3c 87 9d 38 3d 02 a6 b7 39
       -0.17097414 0.0084307715 0.045072105 0.00035028165
000220 6b c3 2c be c3 be e0 3e 50 34 85 bd 6d 5d 1d bd
       -0.16871421 0.4389554 -0.065041184 -0.038419176
000230 4f 76 ff bc 62 ef a5 bd fd df a3 3d 8a ad b2 be
       -0.031184344 -0.08102299 0.08001707 -0.34898025
000240 ec 5b 0e be 0d ec 47 be 89 71 2e be 5a 2d 83 bd
       -0.13902253 -0.1952364 -0.17035498 -0.064051345
000250 71 8d cc bb a7 99 93 3a 5f 3d d0 bd af c3 09 bd
       -0.006242447 0.0011261002 -0.101679556 -0.033633884
000260 ba e8 95 bd 8e ed 0f 3e 3f 42 f3 bc b9 87 02 bd
       -0.0731978 0.14055464 -0.029694675 -0.031867716
000270 62 00 62 3d 0e 79 ac bd 7a 50 79 3d 3b 7c 2b 3e
       0.055176146 -0.08421527 0.060867764 0.16746609

bias f4 [5]
000000 26 db 22 c0 2a de cc be 01 46 60 40 93 c1 9f 3f
       -2.5446258 -0.40013248 3.5042727 1.2480949
000010 52 20 84 c0
       -4.1289454
